Net_100.pth (torch, 624639 bytes, 10 tensors)

conv1.weight f4 [8, 1, 5, 5]
000000 d5 c9 c1 bc 51 ee f9 bd 31 a8 14 be 5e d0 96 bd
       -0.023655811 -0.12203658 -0.14517285 -0.07363962
000010 2c fd 33 be a6 ab d5 3d a9 a1 7e 3d 2c 3f 6a bd
       -0.17577046 0.1043313 0.06216589 -0.05718915
000020 f3 98 9e 3c 45 d7 c7 3d b4 5f 7f 3e 24 85 7a 3e
       0.019360041 0.09757856 0.24938852 0.24464852
000030 7b 42 53 3d f8 c5 77 3e 6b 21 7f 3e a1 bd 9f 3d
       0.051577073 0.24196613 0.24915092 0.07799841
000040 76 15 5d 3e 0c ee 85 3e be 13 b0 3d fa ca 6b 3d
       0.21590218 0.26158178 0.085975155 0.05756662
000050 8d c2 9e bc e0 2a 98 bd b2 69 a8 bd 87 3c 3a 3e
       -0.019379878 -0.07430053 -0.08223285 0.18187152
000060 25 32 5b 3e 88 6f 26 3b 33 c9 5f 3e 7c 5d 62 3e
       0.21405847 0.0025396068 0.21854095 0.22105974
000070 e3 6c 50 3e 13 bc 82 3e 4d 9e 19 3e 96 62 19 3e
       0.20354037 0.25534114 0.15001793 0.14979014
000080 0e 57 12 3d bc 0a 39 bc 70 ab 8e 3d 5e 6e 57 3c
       0.035727553 -0.011294063 0.06966293 0.013148872
000090 fe 4e eb 3c 57 cf a9 bc 1d 4a b2 bd eb e1 05 3d
       0.02872419 -0.02072875 -0.08705542 0.032686155
0000a0 3d 12 91 bd 50 ab 25 3c da 91 0b bd d6 38 1c be
       -0.07083557 0.010111645 -0.03407464 -0.15256056
0000b0 ff 9b c3 bc 27 71 4e be 71 41 cd bd ae 79 3f be
       -0.023878096 -0.20160352 -0.100222476 -0.18698761
0000c0 38 f4 15 be 47 4e 2e bd 87 ef 97 3e da 0c be 3d
       -0.14643943 -0.04255512 0.29674932 0.09279795
0000d0 6e 1b f9 ba 9a f1 8a be 5c ff 27 be 99 0b ab 3e
       -0.0019005367 -0.27137452 -0.16406006 0.33407286
0000e0 7a d3 40 3c c5 3a 90 3d a5 41 46 be 35 e0 2b be
       0.01176917 0.070424594 -0.19360979 -0.16784747
0000f0 0e 2a 9a bc 6b 26 b5 3e f7 b6 ef bd bf cd 95 be
       -0.018818881 0.35380873 -0.1170482 -0.29258534
000100 68 17 8a be ac b5 ec bd 9f c1 8d 3e 02 6e 53 3e
       -0.26970983 -0.11558089 0.27686784 0.20647433
000110 37 0f b8 3a ad 39 23 be e8 33 35 3e c5 c2 8a 3d
       0.001404262 -0.1593997 0.17695582 0.067754306
000120 29 38 83 3d 1d 1b 0e be 13 a1 ec 3d 2b e9 99 bc
       0.06407196 -0.1387753 0.1155416 -0.018787941
000130 df 2e 4c be 89 4e 56 be 09 04 64 bd 62 21 9c 3d
       -0.19939755 -0.20928396 -0.05566791 0.07623555
000140 1f 74 04 be 4d 74 5f be 72 34 bc bd 21 50 27 3e
       -0.12934922 -0.21821709 -0.09189691 0.1633916
000150 7c 13 9e 3e 18 d9 8a be c9 99 0d bd 13 ba a8 3e
       0.3087424 -0.27118754 -0.03457049 0.32954463
000160 e5 36 5e 3e d7 a2 c8 3c fa 8b 31 be d8 97 37 3d
       0.21700628 0.02449171 -0.17338553 0.044822544
000170 9b fe 00 3e 35 fa 96 3c 3d 35 bf bd 10 4b e9 3d
       0.12597124 0.018429855 -0.09336326 0.1139127
000180 3d dd d0 3d 96 f2 2b 3e cc 8d cc bc b2 db 45 bc
       0.10198448 0.16791758 -0.024969958 -0.012076305
000190 72 b2 53 be 27 09 a6 be 7a 05 72 be 54 5d 7f be
       -0.2067354 -0.32428858 -0.23634902 -0.24937946
0001a0 1f 53 ab bd b5 14 43 be 06 98 e4 bd 84 3b 94 bd
       -0.083654635 -0.19050868 -0.11161809 -0.07237914
0001b0 b8 4b 0c bd 7c a7 dc bd 2c 1e 22 3e b5 8f bb 3d
       -0.0342519 -0.107741326 0.15831822 0.09158269
0001c0 0a 65 92 3d 02 f2 13 bd ee 3c a8 ba c6 a6 5f 3e
       0.07148178 -0.03611947 -0.0012835541 0.21840963
0001d0 3c 12 fc 3d 9c 15 41 3e 50 b4 07 3e b9 c0 a1 3d
       0.123081654 0.188559 0.13252378 0.07898087
0001e0 04 7a 98 3b 9c 04 16 3e 87 d9 1b 3e fc 9c 41 3e
       0.0046532173 0.14650196 0.15219699 0.18907541
0001f0 f9 38 82 3e 41 bc 04 3e e6 4a 2d be 49 9a 1a 3d
       0.25434092 0.12962438 -0.16923103 0.037744794
000200 c5 62 a1 bd 4a 8f 4b 3e 7b 37 d7 3c 4f 6a 88 bd
       -0.07880167 0.19878879 0.026271572 -0.06660902
000210 3a 41 3b bd e3 52 8f 3c 5e 9c a6 3c 16 59 92 3c
       -0.0457165 0.017495578 0.020338234 0.017864745
000220 d8 bc ba 3d 06 2f 50 3e b2 99 87 be 56 35 dc bc
       0.0911805 0.20330438 -0.26484448 -0.026880901
000230 48 8b 31 be b2 d9 b6 3d e1 b5 9a 3e a9 1d cc bc
       -0.17338288 0.08928241 0.30216888 -0.024916487
000240 06 bb 8e be 44 e0 69 be 49 71 79 3d 4f da 91 3e
       -0.27877063 -0.22839457 0.060899053 0.2848687
000250 05 b4 49 3e 00 e7 31 be 7a 57 43 3e db c2 60 3e
       0.19697578 -0.17373276 0.19076338 0.21949331
000260 8b 5b 33 3e 10 86 57 bd 0d da 0e 3d 3f 2d bb 3d
       0.1751539 -0.052618086 0.03487592 0.091394894
000270 d7 21 d2 bd a6 33 8f bd c4 5b e9 bd c7 1b 2c 3e
       -0.10260361 -0.06992273 -0.11394456 0.16807471
000280 8f a4 1c be 8c 94 3b 3d 97 f1 52 be 5c ea 34 be
       -0.15297149 0.045795962 -0.20599972 -0.17667526
000290 ce 3a 1a 3e 91 02 3d be 16 77 a7 3c dc f2 63 be
       0.15061495 -0.1845801 0.020442527 -0.22260612
0002a0 b9 8a 0c 3e 78 a8 1c 3e d2 08 4e be 3d 8e b4 bd
       0.13724793 0.1529864 -0.20120552 -0.08816192
0002b0 22 ad af bd 77 8f d0 bd 21 08 25 bd 45 d2 f1 bd
       -0.08577944 -0.10183614 -0.040290955 -0.11807684
0002c0 97 85 8f be e3 1f 98 bd 51 bb 26 bd f4 c5 75 3e
       -0.28031608 -0.07427957 -0.040705983 0.24001294
0002d0 b2 30 15 be e5 f5 a9 be 64 aa 91 3d 74 cd 94 3e
       -0.14569357 -0.33195415 0.071125776 0.29062998
0002e0 91 1c 9d 3e 43 ca e2 3d 21 d6 d4 be c8 55 83 be
       0.30685857 0.110737346 -0.41569617 -0.25651383
0002f0 bb fd 9d 3e 15 97 a6 3e 98 b3 3a 3b 8e b4 0d be
       0.30857643 0.3253714 0.0028488394 -0.13838407
000300 91 d7 b0 3c 4e 9f b9 3e 20 b9 23 3d 41 ab 74 3c
       0.021587165 0.36254352 0.03997147 0.014933408
000310 14 88 03 bd b1 b5 9e bd 04 78 f2 3d 01 a1 c2 bc
       -0.032112196 -0.07749499 0.118392974 -0.023758413

conv1.bias f4 [8]
000000 2d 58 3f be a8 9d 50 be ff 9d f0 bd 0e df 5c be
       -0.1868598 -0.20372641 -0.11748885 -0.21569464
000010 0d 6d e7 bd 50 32 84 be 28 f1 18 3d 5f c0 01 be
       -0.11300097 -0.25819635 0.03733936 -0.1267104

conv2.weight f4 [16, 8, 5, 5]
000000 24 bf 00 bd 24 85 c9 bd a3 fc ca bd dd 38 0c bd
       -0.031432286 -0.09839848 -0.09911468 -0.034233917
000010 fb d5 1a bd 95 4b 1d be 25 39 8a bd 39 e6 d9 bd
       -0.037801724 -0.15360864 -0.06749181 -0.106396146
000020 af 41 b6 bd cf fd 4c bd 73 9b 99 bd 12 fc b0 bc
       -0.08899247 -0.05004674 -0.07500353 -0.021604571
000030 08 dd 23 bd 73 94 dd bc 47 f3 0d be b3 b4 49 bd
       -0.040005714 -0.027048325 -0.13862334 -0.049244594
000040 58 1a 29 3d d6 f6 ab bc 88 5f 03 be 6c 9f c2 bd
       0.04128489 -0.020991724 -0.12829411 -0.095030636
000050 b0 8c 06 bd f6 85 65 bd eb 4b 47 3d 16 10 51 3c
       -0.032849014 -0.05603596 0.048656385 0.012760183
000060 92 ff f7 3c 14 57 2c be f1 08 49 bd eb 19 d5 bd
       0.030273233 -0.16830093 -0.049080793 -0.10405334
000070 9d 90 2a 3d 4d d8 ff bc 62 0e 97 bd ce eb af bb
       0.04164182 -0.03123107 -0.0737579 -0.0053686863
000080 da a6 9e bd f3 37 be bd a2 2c 72 bd 87 2f c8 bd
       -0.07746668 -0.09288015 -0.059124596 -0.0977469
000090 d2 29 41 bd 7d a7 be ba d9 fd a8 bc 54 3e 8b bd
       -0.047159024 -0.0014545765 -0.020628856 -0.067989975
0000a0 65 47 56 bd b3 46 9a bd f3 83 e7 bd 43 51 e3 bd
       -0.05231418 -0.07533016 -0.11304464 -0.11099484
0000b0 ea 10 e8 bd ab 4b 0d bd 78 d8 19 bd 17 e2 9e bd
       -0.11331351 -0.03449599 -0.037559956 -0.07757967
0000c0 01 56 83 bc f4 55 c7 bd 48 93 c1 bd c5 71 a2 bd
       -0.01603222 -0.09733191 -0.0945192 -0.07931856
0000d0 87 d2 e2 bc 04 07 34 bb c8 6f 78 bd 3c d5 4d bd
       -0.027688278 -0.0027470002 -0.060653478 -0.050252184
0000e0 b1 6f 17 bd f3 f5 e5 bd 25 22 9d bc 95 8e 0c be
       -0.03697175 -0.11228552 -0.01918132 -0.13726266
0000f0 38 b6 48 bd 43 71 c5 bd 0f bf e7 bd e3 1f 2e bd
       -0.049001902 -0.096407436 -0.113157384 -0.04251088
000100 f7 e6 71 bd 3e ad f6 bc 6b b3 ba 3c 01 4d cd bd
       -0.059058156 -0.030111905 0.022790631 -0.10024453
000110 33 b7 e3 bb 59 63 c2 bd 36 b8 a9 bd 9e b0 01 be
       -0.0069493293 -0.09491605 -0.082870886 -0.1266503
000120 ca 9b a8 bc 8b ab 97 bc 27 b6 43 bd 22 15 de bd
       -0.020582099 -0.018514415 -0.047781136 -0.108438745
000130 cc e7 65 bd 55 6c 67 3c 33 fc 47 bc 41 3d 58 bd
       -0.05612926 0.014124949 -0.012206125 -0.05279279
000140 09 db 45 3a 9f 10 73 bd 18 f0 d8 bd 03 f7 27 bd
       0.00075475924 -0.059342023 -0.10592669 -0.041007053
000150 f5 f0 89 bc cb e1 d1 bd e6 26 1d bc 79 7a e0 3b
       -0.01683853 -0.10248145 -0.009591794 0.0068505374
000160 7a c2 99 bc 08 b7 64 bd f2 ac af 3b e7 60 9d bd
       -0.018769491 -0.055838615 0.005361193 -0.07684498
000170 37 4d 52 bb 12 b0 f2 bd e7 88 cd bd 94 9e 9a ba
       -0.003208948 -0.11849989 -0.10035878 -0.0011796528
000180 e9 63 43 bd bb 9b c9 bb c4 93 b8 bd e4 7b f0 bc
       -0.047702704 -0.0061525977 -0.09012559 -0.02935595
000190 a5 42 2c be 45 88 0d be ae 20 90 bd 2f 76 0b be
       -0.16822298 -0.13821514 -0.07037483 -0.13619302
0001a0 41 e0 04 be e9 9a 06 be ac a4 72 bd b8 10 35 bb
       -0.12976171 -0.13145031 -0.059239075 -0.0027628373
0001b0 e5 93 a3 bc 0f dc 0f be fe 7f 5a 3d 55 4b 78 3c
       -0.019967983 -0.1404879 0.05334472 0.015154679
0001c0 50 c2 85 bd 58 5f 0c be 54 8b b9 bd 99 a9 df bb
       -0.06531203 -0.13708246 -0.09059778 -0.0068256375
0001d0 31 2c 4a 3d 0f 61 94 bd 83 37 9e bc f6 65 17 3c
       0.04935855 -0.07245075 -0.01931358 0.009240618
0001e0 34 f2 30 bb 0c 3d a1 3c 91 db 12 3d cb 21 e0 3c
       -0.0026999833 0.01968243 0.035853926 0.027359864
0001f0 b4 97 69 3d 7f fd 06 bd 27 bf de 3c 98 59 35 bd
       0.05702944 -0.032956596 0.027190758 -0.044274896
000200 56 74 e9 3c 59 91 a2 bd 16 6e e7 3b 81 f6 ac bd
       0.028497856 -0.07937879 0.007062684 -0.084454544
000210 2e 3c 00 3c b2 33 a5 bd 76 21 bc bd 3d 81 80 bd
       0.007826848 -0.08066501 -0.0918607 -0.0627465
000220 f6 20 ca bd 7b ed 33 bd a3 b9 1a be 41 a4 27 be
       -0.09869568 -0.04392765 -0.15109877 -0.16371252
000230 c4 5c b7 3c 20 56 6e bc ae 07 94 bb c3 e5 f3 bd
       0.022383101 -0.014546901 -0.004517517 -0.11909058
000240 96 c9 3e 3d 0a 9f ed bc fe f5 da 3b 86 c2 dc bd
       0.046578966 -0.0290065 0.0066821566 -0.1077929
000250 3e cc b8 bb fb dc 34 bc 71 9a 34 bd ce 4a af bd
       -0.005639582 -0.011039014 -0.0440926 -0.0855919
000260 1f 47 ea bc b6 43 06 bc e4 45 8e 3c 8e 2b ad 3c
       -0.028598366 -0.0081948545 0.01736731 0.021138933
000270 97 53 44 3c cb 9c b2 bd 10 a9 7b bd 62 5c 89 bd
       0.01198282 -0.08721312 -0.061440527 -0.06707074
000280 cc 30 85 bd 62 66 20 3d f0 62 85 bd 00 49 2a 3d
       -0.06503448 0.03916014 -0.065130115 0.041573524
000290 1e 66 39 3b 5d 10 68 bd 58 c1 0b bd 57 3e 9c bd
       0.0028289626 -0.05665623 -0.034119934 -0.07629078
0002a0 fc 05 25 bd 59 c4 1a bd a9 4a 9e bd 30 78 a9 bd
       -0.04028891 -0.037784908 -0.07729084 -0.08274877
0002b0 10 a8 a9 bd a5 db 1a be 31 e2 13 be b3 f0 f6 3c
       -0.082840085 -0.1512285 -0.14441754 0.030144071
0002c0 32 1f 66 bd 43 af 48 bd 19 8a 97 3c 59 ef 99 bd
       -0.056182094 -0.048995268 0.018498467 -0.07516355
0002d0 b6 67 e5 bd 35 4c 50 3c 30 34 a0 bd c9 59 da bd
       -0.11201422 0.012713482 -0.07822454 -0.106616564
0002e0 68 ec c3 bd 14 3c 73 bd af 00 7e 3c 48 9b a4 3c
       -0.09566575 -0.059383467 0.015503093 0.020093575
0002f0 bc 8e d0 bc ff 47 b9 bd bd e1 f0 bd d7 91 1f bd
       -0.025458686 -0.09046935 -0.11761806 -0.038957443
000300 ab 18 1b 3c e8 d9 bd bd d8 a8 90 3c 33 10 fc 3c
       0.0094663305 -0.09270078 0.017658636 0.030769443
000310 d3 b8 b7 bd f4 39 e4 bd aa 5b ad bd fe 4b 46 3d
       -0.08970799 -0.11143866 -0.08464749 0.048412316
000320 3e c5 4b 3e 39 58 23 3e c4 c8 14 3e 27 9c f6 3d
       0.1989946 0.15951623 0.14529711 0.120415024
000330 59 8f 80 3e 2f 49 28 be 39 c7 07 bf a4 23 19 bf
       0.25109366 -0.16434167 -0.53038365 -0.5982001
000340 35 92 d0 be 34 7b f9 bd 0b b5 8f bd 82 a6 3e be
       -0.40736547 -0.12181702 -0.07016953 -0.18618205
000350 35 56 40 be 10 e8 4b be 70 15 de bd c1 0e 0e 3e
       -0.18782885 -0.19912744 -0.10843933 0.13872816
000360 7f a8 2e 3e ce f0 42 3e c9 89 2e 3e 69 7a c8 3d
       0.17056464 0.19037172 0.17044748 0.09788973
000370 8c 42 23 3e c4 91 26 3e 26 60 50 3e 2d 03 f3 3d
       0.15943354 0.16266543 0.20349178 0.1186584
000380 e5 f6 84 3e 58 bf ac 3d 53 55 74 3e f2 f2 b8 3e
       0.25969616 0.084349334 0.23860674 0.36122853
000390 08 85 95 3e 30 cc b7 3e 7a fa 1b 3d 23 9a f4 3d
       0.29203057 0.3589797 0.03808067 0.11943462
0003a0 c8 de 37 3e 21 8f 86 3e c3 72 6a 3e 91 d9 10 bd
       0.17956078 0.26281074 0.2289534 -0.035363737
0003b0 03 19 26 be 21 69 ae be 7f b9 80 be 86 4b 9a bd
       -0.16220479 -0.34064582 -0.25141522 -0.07533936
0003c0 41 11 36 be c4 eb ba be aa cd c9 be a3 ce ae be
       -0.1778002 -0.36508 -0.39414722 -0.34142026
0003d0 d8 b8 d5 bd a9 b0 52 bc b3 d8 45 bd f5 e1 33 b9
       -0.10435647 -0.012859502 -0.048302364 -0.00017154946
0003e0 b0 7f e5 bd 98 40 d7 bd 35 7f c6 be 2a a6 cf be
       -0.11205995 -0.10510367 -0.38768926 -0.4055646
0003f0 23 38 b9 be 2e bd 13 be 67 60 35 bd 83 fa 20 be
       -0.3617564 -0.14427635 -0.04428139 -0.15720563

conv2.bias f4 [16]
000000 11 46 a4 bd d9 71 cf bd a4 d1 67 bd fe 4c ce bd
       -0.080211766 -0.101291366 -0.056596413 -0.10073279
000010 01 81 92 bc e2 e4 1d bd 89 32 45 bd 17 72 ab 3e
       -0.01788378 -0.038548358 -0.048143897 0.3348548
000020 f6 11 a2 be b2 e8 99 3c 18 6b 86 bd 0f 68 04 3f
       -0.31654328 0.018787716 -0.06563395 0.5172128
000030 14 73 ea bd 15 9e aa bd ca cc ca 3e 67 5e 21 bd
       -0.11447731 -0.08330933 0.39609367 -0.03939667

conv3.weight f4 [32, 16, 5, 5]
000000 b9 09 de bc 39 b5 fa 3c 42 89 1d bc 6a b1 31 bd
       -0.027104245 0.030603992 -0.009615244 -0.043382086
000010 d7 6c 2c 3d e5 4d 74 3b 30 a3 cb 3b fb 09 e1 bc
       0.042095985 0.0037277874 0.006214522 -0.02747058
000020 93 46 d7 bc c3 2e d8 3c 20 6f fc bc 85 32 db 3c
       -0.02627877 0.026389485 -0.030814707 0.026757488
000030 36 ce af 3c 37 b7 0b bd 8b a4 e5 bb 33 3a 0d bd
       0.021460634 -0.034110274 -0.0070081404 -0.03447933
000040 fa c0 c0 bc 6f de 80 3a f9 76 12 bd f5 da 11 bd
       -0.023529518 0.0009831915 -0.035757992 -0.035609204
000050 b4 11 d1 bc 1e 02 a0 bc 72 01 16 3c 36 e4 0a 3d
       -0.025521137 -0.01953226 0.009155618 0.033909045
000060 98 a2 90 bc 24 8d f0 bb 84 74 0f 3d 05 13 e3 bc
       -0.017655656 -0.007341044 0.035023227 -0.02771903
000070 29 68 4e bb d9 e8 31 bc 05 33 6f bc a2 77 2f bd
       -0.003149519 -0.010858738 -0.014599566 -0.0428387
000080 2c 62 6d bc 13 fe 4c bd 87 0b ff 3c 6b ef 0d bd
       -0.014488738 -0.05004699 0.031133426 -0.034652155
000090 5f 3a ab 3b c0 29 65 3c bc fc 96 3c e0 41 1f bd
       0.0052254642 0.013987005 0.01843106 -0.038881183
0000a0 02 c9 ed bc 89 df 2b bd 7f f9 cd 3a b2 c9 17 3c
       -0.029026512 -0.041961227 0.0015714614 0.0092643965
0000b0 af 45 09 bd e1 89 bb bc 5a b6 ac ba 69 0b 0d 3d
       -0.03351372 -0.022892894 -0.0013176904 0.03443471
0000c0 5c 02 e9 3c d2 ef 30 bd 0c 8b 20 bd 52 e7 6e bd
       0.028443508 -0.04319746 -0.039195105 -0.058326073
0000d0 6c fe 4c 3c c7 a9 82 bd b2 a6 5f bd 4b d0 59 bd
       0.012511831 -0.06380039 -0.054602332 -0.05317716
0000e0 08 41 0b bc 35 03 a6 3c 6e 94 93 bc 02 58 00 3d
       -0.008499391 0.020265201 -0.018015113 0.03133393
0000f0 7f 06 e0 3c a0 97 32 bd 24 07 28 bd 4a 9e f3 bc
       0.027346848 -0.043601632 -0.041022435 -0.029738564
000100 ee 01 cc ba 0a 4c bd bb ed 62 3d bc 32 7f e3 bc
       -0.001556454 -0.005776887 -0.01155923 -0.027770612
000110 0a 24 d8 3c 27 e9 25 3b d1 f9 84 bd ae 0c 0a bd
       0.026384372 0.0025315972 -0.06492961 -0.0337035
000120 58 07 f3 bc 31 33 2b bd 1c 81 f4 3c 0d 73 23 3d
       -0.029666588 -0.041796867 0.02984672 0.039904643
000130 c1 6e 39 bd 48 f9 35 bd 46 fc 09 bd 3f bf d1 bb
       -0.04527164 -0.044427186 -0.033687852 -0.006400972
000140 a3 50 64 3b 42 2e 16 3a f7 d4 36 bd 2a d3 3c bd
       0.0034838102 0.0005728939 -0.044636693 -0.04609982
000150 db 32 87 bc e7 36 8e 3c 5a a2 1e bd f0 f4 01 3d
       -0.016503742 0.017360164 -0.03872905 0.03172773
000160 a0 de 1e bc 6b 17 fc 3b 17 07 3d 3d 60 a5 1f 3d
       -0.009696633 0.0076932213 0.04614934 0.038976073
000170 00 2f 33 bd 51 34 8b bc 81 2a 19 bd 8a 34 83 3c
       -0.043745995 -0.01699272 -0.03739405 0.016016264
000180 52 bc ad 3c ae f1 07 3d c1 27 1b 3d f0 5e 62 3c
       0.021207962 0.033189468 0.03787971 0.01381658
000190 ba 44 2b bb 24 50 2f bd 26 8c 07 3d 79 de 12 bd
       -0.0026133494 -0.042801037 0.03309264 -0.035856698
0001a0 79 36 57 3a 43 32 00 3d a6 3f 19 3d c4 51 1a bd
       0.0008209716 0.031297933 0.037414216 -0.037675634
0001b0 bb af 5a bd 7c 77 08 bd 53 99 58 bc b7 de 10 bc
       -0.053390246 -0.033317074 -0.013220149 -0.008842162
0001c0 7d 97 d1 3c 51 b6 1f bc 54 66 46 bd 11 05 0a bd
       0.02558493 -0.009748057 -0.04843743 -0.033696238
0001d0 e1 30 10 b9 de 37 28 bd 32 53 d7 bc 14 3e c6 bc
       -0.00013751119 -0.041068904 -0.026284788 -0.024199523
0001e0 7b 9f 23 3d a6 dd 06 3d 4a 7f 65 bc b8 0d 32 bd
       0.039947014 0.032926224 -0.014007399 -0.043470114
0001f0 fc 3e 35 b9 2e 45 1c bc e9 f8 01 3c ff f8 ba bc
       -0.00017284969 -0.009537978 0.00793288 -0.022823809
000200 c2 79 b6 bc 2f 5e 2a bd 2c 94 51 bd d6 dd 01 3d
       -0.022274856 -0.041593727 -0.0511667 0.0317057
000210 4a 91 e7 3c e5 f7 1f bd e1 bf 54 3c da b6 12 bd
       0.028267521 -0.03905477 0.012985201 -0.035818912
000220 c4 71 bb bc 49 cd 01 3d 1e ac e6 bb ca 64 34 3c
       -0.022881396 0.031689916 -0.007039561 0.011010358
000230 06 bd 9c bc 6b 5b 0d 3d 47 b5 ba 3c c6 a6 a8 bc
       -0.019133102 0.03451101 0.022791518 -0.020587336
000240 51 db 2b bd 43 38 e7 3c ff 7d 44 bd 48 9a c1 bc
       -0.041957203 0.02822507 -0.04797172 -0.023633137
000250 89 0a dc 3a a2 41 f5 3c 62 84 05 bd ff a9 5e 3d
       0.0016787808 0.029938523 -0.032596953 0.05436134
000260 70 86 fe 3c f3 c4 25 3d 8b 07 e8 bc 51 eb ac 3c
       0.031069964 0.04047103 -0.02832391 0.021108301
000270 42 6e cc bc d1 45 91 bc 24 d5 34 3d fe cc c9 bc
       -0.024954919 -0.017733486 0.04414858 -0.02463388
000280 f3 28 29 3d ce 12 be bc dd 02 56 3b ec fb f2 bc
       0.041298818 -0.023202326 0.0032655515 -0.029661141
000290 f4 01 0b bd 6d c3 9c 3c 54 5f 77 bc 96 c7 30 3c
       -0.03393741 0.019136155 -0.015098412 0.0107897725
0002a0 83 ec b9 3c 48 7e 07 3d 2b 16 2f bd 71 6b ba bc
       0.022695785 0.033079416 -0.04274575 -0.02275631
0002b0 9d 5e 03 3d e9 ea 8d bc 3a aa 2b bd 6d 15 62 bd
       0.032072652 -0.017323928 -0.041910388 -0.055196214
0002c0 ac 57 b4 bd db e2 7b bc 12 76 2d 3c ee e2 9f bd
       -0.088057846 -0.015373911 0.010587232 -0.07806955
0002d0 73 e3 8d bd 79 fc 93 bd fa 6d 96 bd fc 68 be bc
       -0.06928148 -0.0722589 -0.07345195 -0.02324342
0002e0 8f d8 95 bd a1 f1 ae bd 32 9c fd bc 26 18 ee 3b
       -0.07316696 -0.08542181 -0.030958269 0.0072660623
0002f0 ca ee a1 3c c1 8b e1 b9 f3 3b 94 3c 4f 06 e0 3c
       0.019767184 -0.0004301947 0.018094992 0.027346758
000300 0f ac c0 3c ac 5f ae 3c 9e 6b 54 bd 4c 02 dd 3c
       0.023519544 0.021285854 -0.051860444 0.026978634
000310 39 36 d6 3c fa 17 57 3c b8 6f 49 bd ea a6 08 3d
       0.026148902 0.013128275 -0.04917881 0.033362307
000320 d3 b1 43 bd 88 bf 22 bd ee 59 53 bc dd 32 35 bd
       -0.04777701 -0.03973344 -0.012899859 -0.04423796
000330 6b eb 81 bd b0 ed 24 3b 41 97 84 bd 27 84 8d 3c
       -0.063437305 0.0025166087 -0.06474162 0.01727493
000340 1b 0f 07 bc d2 a3 8f bd 14 f9 3b bd b3 2b 8c 3b
       -0.0082433475 -0.07013668 -0.045891836 0.0042776703
000350 6a 42 f8 bc 2f 41 76 bd d2 ff 49 bd f5 27 44 bd
       -0.030305106 -0.060120758 -0.049316235 -0.04788967
000360 bf fc 25 bb 43 61 27 3c 08 b9 ce b9 c0 8a 6a bc
       -0.002532765 0.01021606 -0.0003942924 -0.014315307
000370 eb 0b 84 bd e6 e0 f2 3c 12 4b 8d bc a7 19 a9 3c
       -0.06447586 0.029648256 -0.01724771 0.020642115
000380 9b e8 81 bc 4a 65 ef bc 55 f0 59 bd 91 4d 71 bb
       -0.015857985 -0.029223103 -0.053207714 -0.0036819915
000390 82 53 51 bd 38 62 06 bd 39 2e 86 3c ba 2e 06 b8
       -0.05110503 -0.032808512 0.016379463 -3.1991607e-05
0003a0 55 f9 16 3c eb 6e a1 bd 4c 32 03 bd 80 c0 77 bd
       0.009214719 -0.07882484 -0.03203039 -0.060486317
0003b0 fe dd eb bc 9b 58 dd bc 1c be f7 ba 44 5d b3 ba
       -0.028792378 -0.02701979 -0.0018901262 -0.0013684412
0003c0 b2 07 af bc ee d9 ae bb 11 e6 5b bb 9a 3f 68 bd
       -0.021365974 -0.005336038 -0.0033553878 -0.05670128
0003d0 78 ec f5 bc 2e fa cb bb 80 56 3b 3b fc 8a 72 bd
       -0.030019984 -0.006224892 0.0028585494 -0.059214577
0003e0 94 28 75 bb ab 6a 26 bd 5c 47 98 bb a2 07 09 bd
       -0.003740822 -0.04062907 -0.0046471786 -0.033454545
0003f0 b3 6e 5b 3a 96 65 57 bc 97 e2 16 3d 19 dc 2c bd
       0.00083706825 -0.013146779 0.036837187 -0.04220209

conv3.bias f4 [32]
000000 34 a2 b5 3c 97 fa 52 3e 72 cb 52 be fc dc 87 bc
       0.022172071 0.20603405 -0.2058542 -0.016584866
000010 5c 3b 73 bd 08 9b b3 3e d2 a5 9c 3a f0 74 9d bd
       -0.05938278 0.35079217 0.0011951274 -0.0768832
000020 c0 d4 1b bd 9a d5 cc bd a7 d1 b4 3e 16 e5 77 3c
       -0.03804469 -0.10001679 0.35316202 0.015130302
000030 4a 3f 35 be b4 0d ac be 76 df 92 3d 4a 6d b7 bd
       -0.17699924 -0.33604205 0.07171528 -0.08956392
000040 44 46 e1 3e e5 26 b7 3e 7c fd 40 bc df c3 d6 3d
       0.4399892 0.35771862 -0.011779185 0.10486578
000050 67 c1 c0 be af 07 0b 3f 03 2e 7a bd 1a b5 6d bc
       -0.37647554 0.543086 -0.061079036 -0.01450851
000060 46 f1 3f bd c4 34 96 bd d1 ef 6c 3f 12 0d 50 3e
       -0.046860956 -0.07334283 0.9255343 0.20317486
000070 8a 73 67 3c 52 46 11 3f 89 e9 32 bd 9a dc 54 bd
       0.014126668 0.56747925 -0.043679748 -0.051968195

fc1.weight f4 [256, 512]
000000 d6 af cf bc 33 f7 23 3d 5d df 06 3d fe d4 7c bb
       -0.0253524 0.04003067 0.03292786 -0.0038579102
000010 13 05 79 3b 52 23 22 bd cd 11 c8 3b 2e 23 bd 3b
       0.003799741 -0.039584465 0.0061056376 0.005772016
000020 94 6b 46 bc 88 dd 3c 3d 72 06 d3 bb 58 cd 02 3d
       -0.01211061 0.046109706 -0.0064399773 0.031934112
000030 b4 fd ef 3c 1e 0c 32 bc fc 4d 2e 3d 1e 3e bf 3c
       0.02929578 -0.010867147 0.04255484 0.02334505
000040 cf 64 17 bd 6d 5c d8 bd e4 cd b7 bc 3a e7 2b 3d
       -0.036961373 -0.10564504 -0.022437043 0.04196856
000050 45 7a 45 be da 89 da bd 83 c9 68 3e 7a 80 82 3e
       -0.19284923 -0.10670824 0.2273312 0.25488645
000060 2e 22 50 bc 1e 78 6a 3e cb d4 9d 3e 3e 43 83 3e
       -0.012703462 0.22897384 0.3082641 0.2563724
000070 fa 43 a4 bc 70 31 0f be 12 8c 53 3c cf 6d e3 bc
       -0.020051945 -0.13983703 0.012911813 -0.027762322
000080 a6 83 3e be 31 63 9d be 6b 5f 6e be 3b 71 aa 3d
       -0.18604907 -0.3073974 -0.23278587 0.08322378
000090 68 38 ff bd 03 36 d6 bd b9 67 34 be c4 92 a7 bd
       -0.124619305 -0.10459521 -0.17617692 -0.0818229
0000a0 ef b6 1a bd 86 dd 66 3e f5 45 16 3d f3 fb 44 be
       -0.037772115 0.22545442 0.03668781 -0.19236736
0000b0 3e 05 9a be 43 de 74 bd 12 a2 81 bd 3e fa ef be
       -0.30082124 -0.059782278 -0.063297406 -0.46870607
0000c0 28 a9 1c 3d ea 31 80 3c 3c 3c 23 bd e6 79 91 bc
       0.038247257 0.0156488 -0.039852366 -0.017758321
0000d0 9a af b1 3c 86 7b f5 3b f6 55 20 bd 9d fa af bc
       0.021690179 0.007491532 -0.03914448 -0.021481806
0000e0 7e 98 d5 bc 94 90 1e bc 3c 26 83 3c 3d 7b 1b bd
       -0.02607369 -0.009678025 0.016009443 -0.037959326
0000f0 61 3c 09 3d b9 c4 58 bc a0 f3 92 3c 74 62 c5 bc
       0.033504847 -0.013230496 0.017938435 -0.024094798
000100 02 d6 32 ba 60 fa a1 ba f6 6b 19 bc 17 17 f1 3c
       -0.0006822051 -0.0012357943 -0.009364119 0.029429955
000110 c2 60 b1 3c ba 4c 73 bc 70 6b d8 bb a0 2e a4 3a
       0.021652583 -0.014849836 -0.0066046044 0.0012526102
000120 6e 5b df 3c 0e bb 16 3d 7c 6a 69 3c f0 a0 23 bb
       0.027265277 0.036799483 0.014246579 -0.0024967752
000130 46 e2 85 bc ed 46 07 3d 33 1e 19 3d 9e 3b c5 3c
       -0.016343247 0.033026624 0.037382316 0.02407628
000140 f9 fe 65 3e d9 c1 4a 3e 8f ea ba 3d eb 86 a6 3d
       0.22460546 0.1980051 0.0912677 0.08131202
000150 2e 47 d7 bc d7 ba bc bd eb 21 44 3e 59 d8 0f 3e
       -0.026279058 -0.09215324 0.19153564 0.14047374
000160 46 15 26 3d fb a1 12 bd 9d 05 67 3d 22 f1 55 3e
       0.04054763 -0.035799008 0.056401838 0.20892766
000170 7c ea 89 3e 27 f0 6b 3e 53 8f f0 3e 53 67 a2 3e
       0.2693671 0.2304083 0.46984348 0.31719455
000180 63 b6 41 3c aa 42 b5 bc 09 c0 ba bc b3 15 8c bc
       0.01182327 -0.022126514 -0.022796648 -0.01710019
000190 0d 94 52 3d cb 73 be 3c 41 03 3b bc c5 21 23 bc
       0.051410723 0.023248574 -0.01141435 -0.009956782
0001a0 49 f8 e5 bc 55 a7 3e 3d e7 67 05 bd c9 82 86 bc
       -0.028072493 0.0465463 -0.032569792 -0.016419785
0001b0 7b c3 9d 3b 0b 1b 14 3d cd 45 f2 bc f7 b9 d7 3c
       0.004814563 0.036158603 -0.0295743 0.026333792
0001c0 55 b6 97 bd 88 ca ad bc 55 be 1c bd ec 70 27 bd
       -0.07407824 -0.021214738 -0.038267452 -0.040879175
0001d0 ea 76 86 bb 90 44 54 bd 6b 3e fc 3b c4 7b 8b bb
       -0.004103531 -0.0518232 0.0076978705 -0.0042566974
0001e0 0e e8 b7 3c 83 cd c7 bb 67 78 5c bd 4d bc 99 bb
       0.02244952 -0.006097497 -0.053825762 -0.0046916367
0001f0 25 5f 3b bd ca cd 10 3d 9a f7 3d bd f9 f8 32 bd
       -0.045745034 0.035352506 -0.04637871 -0.04369447
000200 2b d7 d6 3d d2 fa 2a 3d 33 4f 64 3c 30 c5 52 bd
       0.10490259 0.041743107 0.013934898 -0.051457584
000210 c4 5f 73 3d 4e 08 db bc 40 54 a7 3d b9 0b a5 3d
       0.0594175 -0.026737358 0.08170366 0.080588765
000220 35 5a 1c bc 68 d8 61 3d 23 d1 59 3d ba f0 2b 3d
       -0.009542991 0.05513802 0.053177964 0.04197762
000230 cd de 91 3d 3c 16 37 3b 29 1d 70 3b c3 36 d7 3c
       0.07122574 0.0027936837 0.0036638475 0.02627123
000240 62 70 cd 3d 3f 68 9d be a7 49 fd bc aa 3f 59 bb
       0.10031201 -0.30743596 -0.03091891 -0.003314952
000250 7f db 16 3e 8c df ea 3c 6d b5 09 be 9e 23 6a bc
       0.14732169 0.028671049 -0.13448115 -0.014290718
000260 47 1d 97 be 2f 28 35 be d5 45 a7 be f6 36 23 be
       -0.29514524 -0.1769111 -0.32670465 -0.15938935
000270 5a e9 c1 bd c0 37 02 be d4 92 05 be ec ae ac 3d
       -0.094683364 -0.1271658 -0.13044292 0.08431801
000280 b9 36 7e 3e d7 a9 ae 3d 66 9f 92 3d f5 ef 46 3e
       0.24825563 0.08528488 0.07159309 0.19427474
000290 4b 82 19 3e 00 5f 46 3e 27 a2 0f 3e 72 e6 93 3e
       0.14991109 0.19372177 0.140267 0.28886753
0002a0 a9 1c 64 bd e4 39 a6 3e e1 d5 98 3e 33 f4 56 bd
       -0.055691395 0.32466042 0.29850677 -0.05247898
0002b0 6b a5 bc be 55 28 ba be a0 e6 55 3c c5 1f 5e bd
       -0.36844954 -0.36358896 0.013055474 -0.054229517
0002c0 66 81 c3 bc 96 39 6f 3c f8 63 29 bc 39 0a 83 bc
       -0.023865413 0.014601132 -0.010338776 -0.015996085
0002d0 8d 83 11 bd 5c 54 86 bc d3 2b 85 3c 8a c8 1b 3d
       -0.035525847 -0.016397648 0.016256249 0.038033046
0002e0 0b 8b a4 3c 35 b2 05 3c cd 61 38 bd 57 d6 7e 3c
       0.020085832 0.008160164 -0.045015145 0.015554032
0002f0 03 8e d6 bc c9 10 11 bd 7d 3d a6 3c 72 c7 28 3d
       -0.026190763 -0.0354164 0.020292992 0.04120583
000300 8c 97 6c 3e b8 48 7f be 92 b3 36 3d 91 3a 01 3e
       0.23104686 -0.24930084 0.044604845 0.12619998
000310 cd 19 a7 bd 06 44 d5 bd a7 4a 10 be 48 74 08 3e
       -0.08159218 -0.10413365 -0.14090978 0.13325608
000320 d8 c9 d7 bd a2 6f 58 bc ff 35 50 3e e1 d9 90 3d
       -0.105365455 -0.013210209 0.20333098 0.07072807
000330 ba c5 0e 3c 8a d0 1c 3d 8c 05 9e bd 1b fa c0 be
       0.008714134 0.038284816 -0.07715902 -0.37690815
000340 cc 3e 5e 3d 18 9b 7a be 54 a8 93 be 63 63 84 3c
       0.054259107 -0.24473226 -0.28839362 0.016160673
000350 f2 0c e3 be 0a 11 6a be f5 35 2a be 17 85 1b be
       -0.44345814 -0.22858062 -0.16622145 -0.15187488
000360 07 04 4f be 7c c5 06 3e b9 4e e9 bd 83 9e 03 be
       -0.2021638 0.13161272 -0.11391968 -0.12853436
000370 9f 25 4f 3c 2d aa d3 3e 4b fc e7 3d cf a8 71 be
       0.012643247 0.4134077 0.11327418 -0.23599552
000380 bd d6 5e be fe d2 91 be ed a5 8d be ae d7 2b bf
       -0.21761604 -0.28481287 -0.27665654 -0.67125976
000390 cf 88 e6 bd e1 54 f4 bd a2 42 93 3d c8 f6 66 be
       -0.11256563 -0.11930252 0.071904436 -0.22555077
0003a0 df 93 0c 3c 52 cc 26 bc 78 8e 8e 3d ef 7f 89 bd
       0.008580177 -0.01018055 0.069607675 -0.067138545
0003b0 1e 8c 07 be bb a9 34 bb 13 97 8a 3c da ca 62 be
       -0.13237044 -0.0027566988 0.01691774 -0.22147694
0003c0 22 84 21 bd 5a a6 91 3c 68 55 37 bd 6c 88 e7 bc
       -0.039432652 0.017779518 -0.044759184 -0.028263293
0003d0 01 f1 47 bd 07 d7 cc 3c 62 b6 e0 bc 28 0e dc 3c
       -0.048813824 0.025004877 -0.027430717 0.026862219
0003e0 4d 1e fb bc 4d 40 21 3c 5c 8a 15 3a e7 c4 d3 3a
       -0.030654097 0.009841991 0.0005704516 0.0016156704
0003f0 c7 31 36 bd 36 18 c1 3b d0 e9 c4 bc 0e c5 21 bd
       -0.044481065 0.0058927787 -0.024037272 -0.039494567

fc1.bias f4 [256]
000000 5c c0 56 3e e0 da 19 3e a6 1b 03 3e 95 16 26 3d
       0.20971817 0.150249 0.12803516 0.04054888
000010 11 ba 42 bd eb fa 99 bd 47 9f fc bb 32 32 4a 3e
       -0.047540728 -0.07518562 -0.007709417 0.1974571
000020 d6 45 e4 bc f9 64 15 be 2f 9a de bd ba 8d cb 3e
       -0.027865332 -0.145893 -0.10869252 0.39756566
000030 c5 92 ba be 3e 1a 86 be a1 94 7a bc b9 84 1b bd
       -0.364401 -0.26191896 -0.015294225 -0.03796837
000040 f6 2c b8 bd a6 2d 7e bd 28 9c 8a bd 31 f2 34 bd
       -0.089929506 -0.062055252 -0.06768066 -0.044176284
000050 8e 4a 63 bd 86 df 91 3d 17 b9 8b be ca a3 cf 3e
       -0.055491023 0.07122712 -0.2728965 0.4055465
000060 92 6e b3 3e 8e 45 b0 be 30 f7 2a bd 58 00 55 bd
       0.35045296 -0.34428066 -0.041739643 -0.05200228
000070 31 cc 83 3c 8f 42 c2 be 6f 3c 3b 3e 34 3d 9d 3e
       0.016088577 -0.37941405 0.18284772 0.30710757
000080 ca 92 7c bd a8 bd 73 be 3b a2 2d bc 3a a6 a5 3d
       -0.061663426 -0.23802817 -0.010597761 0.08088346
000090 8f 6d 17 bd 24 79 e6 3e de e6 05 be 86 c4 79 bd
       -0.036969718 0.45014298 -0.1307635 -0.060978435
0000a0 1f 1b 8b bd c8 71 bb bc e6 6f 40 3c 27 10 c6 3d
       -0.06792282 -0.022881404 0.011745429 0.096710496
0000b0 80 4b 5e bd 40 4c 18 3e 90 5c 1a 3e aa 9c 5d be
       -0.05427122 0.14872837 0.15074372 -0.21641794
0000c0 92 c8 e6 3d 8d 5c 43 3d 36 f0 47 3f 4b 23 97 bd
       0.112687245 0.047695685 0.7810091 -0.073797785
0000d0 03 e3 fd bd a9 b6 e9 bc 03 5f f8 bc f2 61 4f bc
       -0.12396815 -0.028529482 -0.030318743 -0.012657629
0000e0 30 06 ab 3e ab fd 42 3d 47 22 a8 3d 41 e7 ba bd
       0.33403158 0.047605198 0.08209663 -0.091261394
0000f0 99 32 5e be ea 42 28 3e f8 f4 ba bd 44 f9 78 be
       -0.21698989 0.16431776 -0.09128755 -0.24313837
000100 66 80 bc 3b 3a 9e ef bb 74 9b 83 bd 7a 60 05 3d
       0.005752611 -0.0073125632 -0.06426135 0.03256271
000110 c3 c3 01 3e 6b 53 ec bc 13 1e 37 3a 47 de d9 3e
       0.12672333 -0.02884837 0.00069853774 0.42552397
000120 10 44 1e 3e ca e0 b4 bd 63 0f 0b 3c 4f 6a 89 bd
       0.15455651 -0.088319376 0.008487555 -0.0670973
000130 8b e4 51 3e 8c 4f d7 bd ac 0f 68 3b 9c 05 11 3f
       0.20497338 -0.10513219 0.0035409732 0.56649184
000140 64 a7 16 bd b7 ec 8c bc 53 3a c8 3e d6 ec c6 bd
       -0.03678073 -0.017202718 0.39106998 -0.097131416
000150 a1 1c 09 bd 86 89 71 3d bd fa 2c bd 77 a3 28 be
       -0.03347457 0.058969043 -0.04223131 -0.16468607
000160 14 2c 23 bd b9 eb 4a be 4a 16 80 be 66 ee b0 3d
       -0.039836958 -0.19816484 -0.25017005 0.08639221
000170 c7 3b 5f bd ca fe ac 3c 67 c0 35 bd 9a 23 b1 3d
       -0.054500367 0.021117587 -0.044372942 0.086493686
000180 f3 7c 90 3a 79 b2 4d be 3d 3f 75 bd cc b8 ea bc
       0.0011023566 -0.20087613 -0.05987476 -0.028652571
000190 36 45 fe 3c 44 50 78 3c 74 b9 ac 3e ab b3 6c be
       0.031038862 0.015155856 0.3373524 -0.23115413
0001a0 d3 77 ab bd 81 3c a6 bd 42 6c 47 3c c4 03 14 bc
       -0.08372464 -0.08117009 0.012171807 -0.009034101
0001b0 bb d8 cd 3d f3 0a 45 bd 5a 8e 1a bd 1f 7c 8e bd
       0.10051104 -0.048106145 -0.037733413 -0.06957268
0001c0 01 df 0d 3c 1b 1c 01 be de 61 fc 3d da 8e d0 bd
       0.008659125 -0.12608378 0.12323354 -0.10183497
0001d0 bd a0 64 bd d8 41 9e bc 84 71 2f be b9 62 ca 3e
       -0.055817354 -0.019318506 -0.17133147 0.39528444
0001e0 30 73 b9 bd 80 47 8d bd 07 34 aa bd ca cf d9 bd
       -0.090551734 -0.06898403 -0.08310705 -0.10635336
0001f0 b5 72 52 3e 90 15 a6 3d aa 4b 9a bd 02 7c 9e bd
       0.2055157 0.081095815 -0.07533963 -0.07738496
000200 fc 90 63 3d 1b 61 a0 3e f2 55 9f bc f4 26 07 bc
       0.05555819 0.31324086 -0.019450162 -0.008249033
000210 a1 85 b6 bc a8 39 37 be e8 2b 35 bd 79 ea 2b be
       -0.022280516 -0.17893088 -0.044231325 -0.16788663
000220 9d 7f 6a 3d 7b 65 f4 3d 5e 72 8c 3d 86 ac 4f be
       0.057250608 0.11933418 0.06857751 -0.20280656
000230 98 f1 d5 bd 5d e5 58 3e ce 9c 9a bd f4 2b b5 3e
       -0.10446471 0.21181245 -0.07549439 0.35385096
000240 17 c5 e1 bd b9 f1 4a be a0 a1 5b 3e 12 cf 71 3d
       -0.1102392 -0.19818772 0.21448374 0.05903537
000250 95 5b a4 3c 73 12 eb bd e1 02 92 3d f1 b1 7b bd
       0.020063201 -0.11478128 0.07129455 -0.061448995
000260 6a 12 3a be e0 e8 50 3e 1d a4 f4 bd d4 2b da 3d
       -0.18171087 0.20401335 -0.119453646 0.10652891
000270 43 93 23 be 6a de 84 bc c4 8f 84 bd 43 22 fd 3e
       -0.15974145 -0.016219337 -0.064727336 0.49440202
000280 e5 ee bf bd c0 a3 5d bd 52 a3 85 bd 97 12 01 3f
       -0.093717374 -0.054111242 -0.065252915 0.5041899
000290 c4 da 50 be 28 d5 a4 bd cd 5d 8c 3e 4e b8 89 bd
       -0.20395952 -0.08048469 0.27415314 -0.067246065
0002a0 3b f5 db 3d 42 09 32 3d 0d 36 84 bd 49 0a 02 3c
       0.107401334 0.04346586 -0.06455622 0.0079370225
0002b0 46 ff 6a bd f1 63 14 bc 45 34 c8 3e ba 60 bb 3d
       -0.057372354 -0.009057031 0.39102378 0.091493085
0002c0 fd d8 09 3e 88 0c 86 be e7 2d db be 67 70 54 be
       0.1346168 -0.26181436 -0.42808458 -0.20746003
0002d0 ac 1b bb 3e 41 c5 cc be 53 b3 8b 3d 0d df 07 bd
       0.3654455 -0.39994243 0.06821313 -0.033171702
0002e0 9d 2d 89 3e 8e 58 07 bd 39 ec 18 3e a5 5d 77 be
       0.26792613 -0.033043437 0.14933862 -0.24156816
0002f0 5b b9 3a 3e 86 54 c6 bb 93 4f c7 bd 4d 08 49 bd
       0.1823477 -0.0060525564 -0.097319745 -0.049080182
000300 62 48 a4 bd b8 21 0b 3e d3 f2 86 be 70 00 32 bd
       -0.080216184 0.13587081 -0.26357135 -0.04345745
000310 1c f7 d0 be 4e 4a 9e bc 2c 5e 0f 3d 00 52 23 be
       -0.4081353 -0.01932254 0.03500192 -0.1594925
000320 dd 63 a1 bc 91 25 00 be a8 9c 11 3f 08 49 e2 bd
       -0.019700939 -0.1251433 0.56879663 -0.11049086
000330 25 cb 82 be 05 83 62 be 09 c4 ba 3c 35 19 a4 be
       -0.25545612 -0.22120292 0.022798555 -0.3205048
000340 35 22 8a be fe 2c 1b be 43 bc f7 3e 6b 43 79 3e
       -0.26979223 -0.15153882 0.4838582 0.24342124
000350 3d 2f 85 bd 90 20 c7 bd 1e 08 04 be a5 01 52 bd
       -0.065031506 -0.09723008 -0.12893721 -0.0512711
000360 b7 db b2 3b 68 68 55 bc 42 21 0c 3e 5d 7e 97 3d
       0.005458321 -0.013025381 0.13684562 0.07397149
000370 d2 60 28 bd de 04 ae 3d 5d 1b 0b be 4f c8 2d be
       -0.04110796 0.08497022 -0.13584657 -0.16970943
000380 a7 9a 83 bd 55 3a 89 3d 4b 53 9b bd f4 45 b5 bc
       -0.06425982 0.06700579 -0.07584246 -0.022128083
000390 c7 ed d1 be 50 a1 b3 3e 2e a9 91 bc 94 31 26 3e
       -0.41001722 0.3508401 -0.017780866 0.1622985
0003a0 4e 26 18 be 93 4f 2e be c6 35 22 3c 8a a1 b6 3d
       -0.14858362 -0.17022543 0.009900516 0.0891753
0003b0 c5 d3 7e be 0a 38 ec bd d9 3a 46 be 50 c9 5e bd
       -0.24885471 -0.11534126 -0.19358386 -0.054391205
0003c0 55 1a a7 3e 80 4a 06 be be 22 2b 3b 15 44 b6 bd
       0.32637277 -0.13114357 0.0026113237 -0.08899704
0003d0 81 33 49 bd 4a 5a ca 3d 28 14 04 3f eb 17 9f bb
       -0.049121384 0.098805025 0.51593256 -0.004855146
0003e0 e8 aa 80 bd 38 56 92 bd 1a cf 7f bd 3f 2f a7 bd
       -0.06282598 -0.07145351 -0.062453367 -0.08163308
0003f0 8d 37 9d bd 12 2e 68 be e6 cb 1c 3e 3c 81 fb bc
       -0.07676611 -0.22673824 0.15312156 -0.030701272

fc2.weight f4 [30, 256]
000000 26 d1 06 be a5 8d 6d be 84 fd 00 bf cb e6 ab bd
       -0.13165721 -0.23198564 -0.50386834 -0.0839363
000010 41 bf ce bc 03 e2 fe 3b 04 b1 bc be 23 f8 b0 3e
       -0.025237681 0.0077784075 -0.36853802 0.34564313
000020 a9 0e a5 bc bb 09 c6 3d b0 ec 7b be a7 78 56 3b
       -0.020148592 0.09669825 -0.24602008 0.0032725723
000030 32 c3 a8 bd 5f 4c d3 3c 75 9b 61 3c 47 47 e9 b9
       -0.082403556 0.025793253 0.013769974 -0.0004449433
000040 cb 1f 56 be e7 9b 77 bd 32 e3 39 be 17 a9 81 bd
       -0.20910566 -0.060451414 -0.18153074 -0.063310795
000050 a9 c5 80 bd 17 a8 2e bf 1e 67 23 3e 96 fd 09 be
       -0.06287701 -0.68225235 0.15957305 -0.13475642
000060 d7 49 94 be 70 ad 1e bf e5 13 99 3c 69 52 c9 bd
       -0.28962585 -0.61983395 0.018686244 -0.098301716
000070 a5 e7 21 bf 83 43 fd be df 24 5d bd e8 db 07 bf
       -0.63244087 -0.4946557 -0.05399024 -0.53069925
000080 42 a4 8f bc 62 4b 23 bf da f4 78 be 63 ce 92 be
       -0.017534379 -0.637869 -0.24312153 -0.28673086
000090 1e 00 b1 bd df d3 4f be 0d 04 1d bd 65 5c 7d bd
       -0.086426005 -0.20295666 -0.03833394 -0.061855692
0000a0 99 b8 a5 be 7e 32 5e be 39 bf 3d 3c 38 e3 5e be
       -0.323674 -0.21698949 0.011581236 -0.21766365
0000b0 4b 4f bf bd df 01 c1 bb 50 e0 9e be c5 31 a9 be
       -0.09341296 -0.0058901156 -0.31030512 -0.33045784
0000c0 f3 60 e0 be a9 f4 45 3e d9 8d c0 be 5e 60 d4 be
       -0.43823966 0.19331612 -0.3760822 -0.41479772
0000d0 c8 b6 a8 be c4 6c 06 bd 98 26 47 be 36 1f 0c 3d
       -0.3295195 -0.03281857 -0.19448316 0.034209453
0000e0 cf 72 c2 3c 7e 7d 73 be e0 60 16 be ad f9 39 be
       0.023736386 -0.2377834 -0.14685392 -0.1816165
0000f0 11 32 94 3b 48 88 8b bd de 23 6d bd b3 76 58 3c
       0.00452257 -0.06813103 -0.057895534 0.013211894
000100 15 1b 94 bc b7 5e ae bd 0b 3f 29 bd a7 62 ad bc
       -0.01807932 -0.08514159 -0.041319888 -0.021165205
000110 e6 89 62 3e 8f a3 65 bd 90 d4 a2 bd a7 ea a1 3e
       0.22122917 -0.056064185 -0.07950699 0.31624338
000120 69 72 29 be 99 70 28 be d8 d4 2d 3e 22 f3 e9 bc
       -0.1654755 -0.16449203 0.16975725 -0.028558318
000130 d8 42 4f bd 46 8b ed bd 78 b3 c1 be 7b 3b 5e bf
       -0.050600857 -0.1159883 -0.37832236 -0.8680951
000140 9e 13 cc 3e b9 58 7d 3b 61 94 c4 be f2 5d af bd
       0.39858717 0.003865762 -0.38394454 -0.085628405
000150 2a 08 57 bd 9e e4 1d be 15 d2 94 be ad 95 49 be
       -0.05249802 -0.15419242 -0.2906653 -0.19686003
000160 44 7c 83 be 19 f9 9b be 30 de 92 bd b6 b3 02 3d
       -0.25680745 -0.30463484 -0.07171285 0.031909667
000170 69 b1 15 be 59 85 9c be 59 84 44 bd 6a d3 b4 ba
       -0.14618458 -0.30570486 -0.04797778 -0.0013795916
000180 e4 ba e3 be 12 99 02 be 51 f4 a6 bd 53 ed cf 3c
       -0.44478524 -0.12753704 -0.081520684 0.02538172
000190 69 23 0c 3d e1 3f cd be ff 10 e8 38 11 ee de be
       0.034213457 -0.40087798 0.00011065788 -0.43541005
0001a0 45 69 30 be f8 90 4a bd 8c 67 93 3e de 8f 20 3e
       -0.17227657 -0.04945466 0.28789937 0.15679881
0001b0 f8 80 a3 3e a7 25 6f bf 60 ef 86 bd 53 73 37 bd
       0.31934333 -0.9341683 -0.06588626 -0.044787716
0001c0 25 cb 72 be fb b2 6d be 71 c3 31 3e 31 bc 56 3e
       -0.23710306 -0.23212807 0.17359711 0.20970227
0001d0 6b 00 98 bd 9e 4c 14 3d 2f 93 69 be 57 ea 84 be
       -0.07421955 0.03620588 -0.22810052 -0.25960037
0001e0 ea 09 b1 bd aa 2d 0e bd 3e 29 18 3c 52 31 4a be
       -0.08644469 -0.034711517 0.009287177 -0.19745377
0001f0 ec 92 bc be 77 45 bc bd 8f 17 1b be 58 94 8a bd
       -0.36830842 -0.09192937 -0.15145706 -0.067665756
000200 81 60 0b bf 02 ef ec bd 62 1c 3f bc 7b 45 37 bd
       -0.5444413 -0.115690246 -0.011664482 -0.044743996
000210 31 3a ca 3a d6 82 ab be 2d 46 67 3c f6 f9 39 be
       0.0015428719 -0.33498257 0.014115852 -0.18161759
000220 6b e0 d3 3b 28 19 2e 3d 80 a7 17 bd 8f 33 08 bc
       0.0064659617 0.04250446 -0.037024975 -0.008313074
000230 b0 4c ba be 85 77 d0 be 21 6b c1 be 90 4f 82 3e
       -0.36386633 -0.40716186 -0.37777045 0.25451326
000240 d5 f5 33 be 3c c8 c0 3d 34 eb be 3d 1d 0a 08 be
       -0.17574246 0.09413192 0.09322205 -0.13285108
000250 38 e9 88 be 1f ac 69 be 3c 6d 0c bf 46 91 d8 3b
       -0.26740432 -0.22819565 -0.5485418 0.006609115
000260 c8 fb 53 be b1 ae 90 3d 7f bc cb bd 8b f9 b8 be
       -0.20701516 0.0706457 -0.09948062 -0.36127886
000270 0d f5 e7 be 59 de 2a bd 0d 13 35 bd 00 47 5f 3d
       -0.45304146 -0.041715953 -0.04420762 0.05451107
000280 a5 b3 e0 3d ff 93 42 bc bb 1a fb bd 65 25 fb be
       0.109717645 -0.011876105 -0.12260958 -0.49051967
000290 85 93 8e 3d ca 59 c2 bc 26 dc e5 bc bf 3e ea bd
       0.06961731 -0.023724455 -0.028059077 -0.11437749
0002a0 a5 8a 4d be 43 39 b1 3e 71 c8 c2 be 97 08 c3 be
       -0.2007242 0.34614 -0.3804355 -0.3809249
0002b0 dc 45 03 bd 60 3b b0 39 27 b6 a0 3d e7 95 10 bf
       -0.032049045 0.00033613574 0.07847243 -0.5647873
0002c0 57 01 c8 be 67 a9 92 be 65 66 c9 3c 5a 1e 01 bc
       -0.39063522 -0.2864487 0.024584958 -0.0078807715
0002d0 df c3 95 be 91 57 6b be 89 79 82 3e dc 55 02 bc
       -0.29251 -0.22982623 0.2548335 -0.007955041
0002e0 29 54 03 bf ab 30 39 be c0 fb 7a be 4d 3c 3b 3e
       -0.51300293 -0.18084972 -0.24510098 0.18284722
0002f0 5a 56 33 bf ed 05 a3 3d fa d3 71 bf a2 95 f1 be
       -0.7005364 0.07960115 -0.94464076 -0.47184473
000300 47 9b 3f bd 86 d8 9d bd 73 58 7c be 0c 39 ea bd
       -0.046778943 -0.07707314 -0.24643116 -0.11436662
000310 74 c8 f2 bd 98 40 b2 be b4 21 e1 bd a8 3d b2 be
       -0.1185464 -0.34814906 -0.109927565 -0.34812665
000320 48 bf 13 bd bc 77 bb 3e 40 20 07 be b0 d8 75 be
       -0.036071092 0.36614788 -0.13195896 -0.24008441
000330 b7 36 e9 be 6d fc 90 bd 6d 98 14 bf fb b4 f8 bd
       -0.45549557 -0.070793964 -0.58045083 -0.12143894
000340 6a d6 df be 63 f8 d1 be 97 57 0c bf 0e 38 ef be
       -0.43718272 -0.41009817 -0.5482115 -0.46722454
000350 17 34 39 be 6c f1 bb bd f7 59 64 bd d3 8a eb bd
       -0.18086277 -0.09176907 -0.05574986 -0.11501088
000360 6c 2b 9e bd 37 98 bc bc d6 d3 f5 bd 99 dd a0 be
       -0.07723126 -0.0230218 -0.12003295 -0.31419066
000370 8e ac 06 bd 98 77 3d be 33 23 fd bb 21 03 1b 3e
       -0.032879405 -0.18502653 -0.0077251433 0.15137912
000380 5a cc 2a bd 19 99 67 3e c6 d0 02 bc 52 df 07 bd
       -0.04169879 0.22616996 -0.007984346 -0.03317196
000390 a6 42 e7 be c8 05 db be 48 be 9a bd 7c 0a 6e be
       -0.45168036 -0.42777848 -0.075558245 -0.23246187
0003a0 41 45 4b 3d 4c ac 23 be 85 54 10 3d 23 83 08 be
       0.049626593 -0.15983695 0.035236854 -0.13331275
0003b0 bb 7f 00 3b 0b e5 a1 be 9e e0 c2 bd 76 9c 8e bd
       0.0019607383 -0.31620058 -0.095154986 -0.06963436
0003c0 e9 d7 fc be 74 45 50 be 6b 60 d3 be 95 f6 f4 3c
       -0.49383476 -0.20338994 -0.412845 0.029902736
0003d0 f6 6f ae 3d 43 c3 80 3e 98 8c 1c bf 59 77 f7 bc
       0.085174486 0.25148973 -0.6115203 -0.030208277
0003e0 d7 da 19 bd 20 0c e3 bd 3f 1b 01 bc 50 a5 cf be
       -0.037562218 -0.11086297 -0.007880031 -0.4055581
0003f0 76 36 4a bd 67 d2 0e 3e 03 a0 2f bc ee 9a 4d bd
       -0.049368344 0.1394745 -0.010719302 -0.05019658

fc2.bias f4 [30]
000000 84 5f b0 3e a4 65 f1 3d 30 57 3d be 2d be 38 be
       0.34447873 0.117869645 -0.1849029 -0.18041296
000010 71 5b 1c 3e 71 aa ae be ed 72 ce be 9b 0c 50 bd
       0.15269257 -0.3411441 -0.40322056 -0.05079327
000020 ec e3 c4 bc 6f 3b 02 be 02 da 6d 3e 53 24 af bd
       -0.024034463 -0.12717985 0.23227695 -0.0855185
000030 82 6d 89 be 3b 87 64 be a0 b4 e7 bd 31 f7 94 be
       -0.2684136 -0.22317211 -0.11313748 -0.29094842
000040 cf b9 3d be 1f 01 89 be 84 5b 30 3e 04 39 a7 3d
       -0.18527912 -0.26758668 0.1722241 0.08165172
000050 ae e7 02 be 94 83 85 be c4 83 97 3b 5a 28 70 3e
       -0.12783691 -0.2607695 0.004623862 0.23452893
000060 0c a2 95 3c d5 c4 f4 3d 2c ef 2b 3e ae 43 c4 3e
       0.018265747 0.11951605 0.16790456 0.38332886
000070 d1 54 ad 3e 57 24 93 3e
       0.33853772 0.28738663
